…
   "cell_type": "markdown",
   "metadata": {},
   "source": [
    "## Network Training\n",
    "\n",
    "### Network Architecture\n",
    "\n",
    "Binary classification model."
   ]
  },
  {
   "cell_type": "code",
   "execution_count": 13,
   "metadata": {},
   "outputs": [
    {
     "name": "stdout",
     "output_type": "stream",
     "text": [
      "_________________________________________________________________\n",
      "Layer (type)                 Output Shape              Param #   \n",
      "=================================================================\n",
      "input_1 (InputLayer)         (None, 101, 101, 3)       0         \n",
      "_________________________________________________________________\n",
      "flatten_1 (Flatten)          (None, 30603)             0         \n",
      "_________________________________________________________________\n",
      "dense_1 (Dense)              (None, 32)                979328    \n",
      "_________________________________________________________________\n",
      "batch_normalization_1 (Batch (None, 32)                128       \n",
      "_________________________________________________________________\n",
      "dense_2 (Dense)              (None, 64)                2112      \n",
      "_________________________________________________________________\n",
      "dense_3 (Dense)              (None, 128)               8320      \n",
      "_________________________________________________________________\n",
      "dense_4 (Dense)              (None, 256)               33024     \n",
      "_________________________________________________________________\n",
      "batch_normalization_2 (Batch (None, 256)               1024      \n",
      "_________________________________________________________________\n",
      "dropout_1 (Dropout)          (None, 256)               0         \n",
      "_________________________________________________________________\n",
      "dense_5 (Dense)              (None, 512)               131584    \n",
      "_________________________________________________________________\n",
      "dense_6 (Dense)              (None, 2)                 1026      \n",
      "=================================================================\n",
      "Total params: 1,156,546\n",
      "Trainable params: 1,155,970\n",
      "Non-trainable params: 576\n",
      "_________________________________________________________________\n"
     ]
    }
   ],
   "source": [
    "def  build_model():\n",
    "\n",
    "    tensor_input = keras.Input(shape=(101,101,3))\n",
…
